…
8530ab","executionInfo":{"status":"ok","timestamp":1585797491232,"user_tz":240,"elapsed":589,"user":{"displayName":"Viramya Shah","photoUrl":"","userId":"17546707879001088380"}},"colab":{"base_uri":"https://localhost:8080/","height":731}},"source":["model.summary()"],"execution_count":29,"outputs":[{"output_type":"stream","text":["Model: \"sequential_2\"\n","_________________________________________________________________\n","Layer (type)                 Output Shape              Param #   \n","=================================================================\n","conv2d_4 (Conv2D)            (None, 127, 127, 16)      208       \n","_________________________________________________________________\n","activation_6 (Activation)    (None, 127, 127, 16)      0         \n","_________________________________________________________________\n","max_pooling2d_4 (MaxPooling2 (None, 42, 42, 16)        0         \n","_________________________________________________________________\n","conv2d_5 (Conv2D)            (None, 41, 41, 32)        2080      \n","_________________________________________________________________\n","activation_7 (Activation)    (None, 41, 41, 32)        0         \n","_________________________________________________________________\n","max_pooling2d_5 (MaxPooling2 (None, 13, 13, 32)        0         \n","_________________________________________________________________\n","dropout_2 (Dropout)          (None, 13, 13, 32)        0         \n","_________________________________________________________________\n","conv2d_6 (Conv2D)            (None, 12, 12, 64)        8256      \n","_________________________________________________________________\n","activation_8 (Activation)    (None, 12, 12, 64)        0         \n","_________________________________________________________________\n","max_pooling2d_6 (MaxPooling2 (None, 4, 4, 64)          0         \n","_________________________________________________________________\n","flatten_2 (Flatten)          (None, 1024)              0         \n","_________________________________________________________________\n","dense_5 (Dense)              (None, 1024)              1049600   \n","_________________________________________________________________\n","dense_6 (Dense)              (None, 256)               262400    \n","_________________________________________________________________\n","dense_7 (Dense)              (None, 64)                16448     \n","_________________________________________________________________\n","activation_9 (Activation)    (None, 64)                0         \n","_________________________________________________________________\n","dense_8 (Dense)              (None, 6)                 390       \n","_________________________________________________________________\n","activation_10 (Activation)   (None, 6)                 0         \n","=================================================================\n","Total params: 1,339,382\n","Trainable params: 1,339,382\n","Non-trainable params: 0\n","_________________________________________________________________\n"],"name":"stdout"}]},{"cell_type":"code","metadata":{"id":"PXwHtmtdyOWK","colab_type":"code","colab":{}},"source":["model.compile(\n","    loss = 'categorical_c
…
